models/logistic_regression_model.pth (torch, 41732 bytes, 2 tensors)

fc.weight f4 [2, 5000]
0	0x3f12e059	0.5737358
1	0x3e83b11e	0.25721067
2	0xbf076527	-0.5288872
3	0x3f0edba4	0.55803895
4	0x3f40c834	0.75305486
5	0x3f01750a	0.5056921
6	0x3d53d532	0.05171699
7	0xbe01ef8c	-0.12689036
8	0x3f434c8d	0.7628868
9	0x3e1274d7	0.14302383
10	0xbe4db09f	-0.20086907
11	0x3c9fa992	0.019490037
12	0x3f385ada	0.7201363
13	0x3effc012	0.49951226
14	0x3e9a3610	0.3011937
15	0xbe7ac617	-0.24489628
16	0xbf651e20	-0.8949909
17	0xbfd154e1	-1.6354028
18	0xbfe0e5fc	-1.7570186
19	0x3f1abb33	0.60441893
20	0xbe0c187d	-0.13681217
21	0xbef48fde	-0.47766012
22	0x3dd072fd	0.10178182
23	0xbe8a20b8	-0.26978087
24	0xbee762c0	-0.45192528
25	0x3e6e93bb	0.23298542
26	0x3e72b813	0.23703031
27	0xbf74f677	-0.95688576
28	0x3b8a7794	0.0042256806
29	0x3ec5e20e	0.3864903
30	0x3f2acf23	0.66722316
31	0xbf53ceae	-0.82737243
32	0x3ec555e1	0.38542083
33	0xbf843ff7	-1.033202
34	0x3b8b8961	0.00425832
35	0x3f0c94ad	0.5491436
36	0x3f62e6f2	0.88633645
37	0x3db357cd	0.08756981
38	0xbef42146	-0.47681636
39	0x3f417cca	0.7558104
40	0xbe3904cf	-0.1806824
41	0xbef62dda	-0.48081857
42	0x3e8c1366	0.2735855
43	0x3f878bfb	1.0589594
44	0x4067b8e4	3.6206598
45	0xc0037ac3	-2.0543678
46	0xbffca13c	-1.9736705
47	0xbde66237	-0.11249202
48	0x3d7bcf1e	0.06147682
49	0x407676a4	3.8509912
50	0x4068adf7	3.635618
51	0xbcce210f	-0.025162248
52	0x3df1f0e6	0.11813526
53	0x3f0e9f5d	0.5571192
54	0x3e0acd82	0.13554958
55	0x3e7a6a13	0.24454527
56	0x3e235966	0.15952072
57	0x3e4e7187	0.20160495
58	0xbeea814e	-0.45801777
59	0x3ec09fc6	0.37621897
60	0xbbdb5bc4	-0.006694289
61	0xbe2ef49d	-0.170855
62	0xbec151aa	-0.37757617
63	0xbf0caa35	-0.54947215
64	0xbef1510d	-0.4713215
65	0x3cb40daa	0.021979172
66	0xbf596d0e	-0.8493203
67	0xbecb4a2e	-0.39705032
68	0x3f588fe3	0.84594554
69	0xbd81ed8f	-0.06344139
70	0xbe876ab4	-0.26448596
71	0xbf88b89b	-1.0681337
72	0xbf71ffd4	-0.9453099
73	0xbeddd7f1	-0.43328813
74	0xbf3767ff	-0.7164306
75	0xbe3ca24d	-0.18421288
76	0xbe287668	-0.16451418
77	0xbf301347	-0.68779415
78	0xbe3b2234	-0.18274766
79	0xbed63f8f	-0.41845366
80	0xbedc9a6b	-0.43086562
81	0xbed55b17	-0.4167106
82	0x3e7e6e99	0.24846877
83	0xbe04f756	-0.12984976
84	0xbdf847b2	-0.1212305
85	0xbeacb601	-0.33732608
86	0x3ee264ed	0.44217625
87	0xbf5044e9	-0.8135515
88	0xbf71e4dd	-0.9448984
89	0xbf0092c4	-0.50223947
90	0xbf959db7	-1.1688756
91	0x3e9c375c	0.30510986
92	0xbeacd127	-0.3375332
93	0xbecd88ff	-0.40143582
94	0xbf696e0a	-0.9118353
95	0xbf5d4fa3	-0.8644964
96	0xbe5fe87f	-0.21866034
97	0xbf5a5740	-0.8528938
98	0xbf300556	-0.6875814
99	0xbea881f1	-0.32911637
100	0x3eb86352	0.36013275
101	0xbf9de943	-1.2336811
102	0x3f018529	0.5059381
103	0xbe724f8b	-0.23663156
104	0xbf4196ff	-0.75621027
105	0xbf50d236	-0.81570756
106	0xbddf2899	-0.10896415
107	0xbeb2eae7	-0.3494484
108	0xbf23efc0	-0.64037704
109	0xbdc477ca	-0.095931605
110	0xbed3f541	-0.4139805
111	0xc02ce4b6	-2.7014594
112	0x3f1d25b8	0.6138568
113	0xbe6af69d	-0.22945638
114	0xbede6f0d	-0.434441
115	0x3eb03167	0.3441269
116	0xbe3ca2a8	-0.18421423
117	0xbef6368f	-0.480885
118	0xbe2ecb29	-0.17069687
119	0xbf71cdc1	-0.9445458
120	0x3eac8b3e	0.33699983
121	0x3e82f56b	0.25577864
122	0xbfde9c87	-1.7391518
123	0xbed786f1	-0.4209514
124	0x3c72ed30	0.014827058
125	0x3e25d4d4	0.16194469
126	0xbf0aee20	-0.542696
127	0xbeaf8c72	-0.3428684
128	0x3e285576	0.16438851
129	0xbf494cb3	-0.7863266
130	0xbde5dd98	-0.11223906
131	0x3f083106	0.53199804
132	0xbf8046fd	-1.0021664
133	0x3eb24dcd	0.34824982
134	0xbf40188d	-0.7503746
135	0xbf004d06	-0.5011753
136	0x3e2a7906	0.1664773
137	0x3e0adaea	0.13560072
138	0x3fe72298	1.8057432
139	0xbef57c9d	-0.47946635
140	0xbf50f1f9	-0.8161922
141	0x3f1eaad4	0.61979413
142	0xbfbc6d34	-1.4720826
143	0x3ecd78c1	0.4013119
144	0xbeaf5a93	-0.3424879
145	0xbff24359	-1.8926803
146	0xbeb5a9b4	-0.35481036
147	0xbf0f759b	-0.56038827
148	0xbf5c5233	-0.86062926
149	0xbe1c8a98	-0.15287244
150	0xbf42264f	-0.75839704
151	0x3f31cb00	0.6945038
152	0xbfbd1acc	-1.4773803
153	0x3f471541	0.77766806
154	0x4053b252	3.3077588
155	0xbe388c92	-0.18022373
156	0x3f00e84c	0.50354457
157	0x3e17a569	0.14809193
158	0xbecf3c5e	-0.40475744
159	0x3f5f7dcd	0.8730133
160	0x3f291ff2	0.6606437
161	0xbeb03e77	-0.34422657
162	0x3e751753	0.23934679
163	0x3f07b8ce	0.53016365
164	0xbe8cb3c3	-0.27480897
165	0x3f1ddde4	0.61666703
166	0xbdb0ccfc	-0.08632848
167	0xbd185a2c	-0.03719537
168	0x3edbd8ba	0.42938787
169	0xbdebad74	-0.11507693
170	0xbe2f8d58	-0.17143762
171	0x3fb5259d	1.4152104
172	0x3ffea0d2	1.9892828
173	0x3eb08b50	0.34481287
174	0xbf5cae5f	-0.8620357
175	0xbea8ca43	-0.32966813
176	0xbfbe80fc	-1.4883113
177	0xc0212871	-2.5180933
178	0x3fe6b4d1	1.8023931
179	0xbf932fd1	-1.1498967
180	0xbf82d317	-1.022067
181	0xbf3b19a5	-0.73086005
182	0xbf8141e7	-1.0098237
183	0x3f14fecf	0.5820131
184	0x3efe5b08	0.49678826
185	0x3e0d492c	0.13797444
186	0xbcd5f25c	-0.026116543
187	0x3f89ed92	1.0775626
188	0x3f0c02f3	0.54692
189	0x3f377644	0.71664834
190	0xbeab536c	-0.33462083
191	0x3e66faf7	0.22556673
192	0xbd717cf4	-0.058957055
193	0x3f642906	0.89125097
194	0xbe1be9ed	-0.15225954
195	0xbea3cc4c	-0.31991804
196	0xbd676ce9	-0.05650035
197	0xbfba0750	-1.4533482
198	0xbd7badd7	-0.061445083
199	0x3e7212e1	0.23640014
200	0x3f3afb99	0.7304016
201	0x3df7bf0b	0.120969854
202	0xbfb23e6c	-1.39253
203	0xbefa2274	-0.4885441
204	0x3f4fbd05	0.81147796
205	0xbe9e101b	-0.30871662
206	0xbe893351	-0.26796964
207	0x3ecf126c	0.40443742
208	0xbf4b75f4	-0.7947686
209	0xbf7c4422	-0.9854146
210	0xbe7ae019	-0.24499549
211	0x3ddc8774	0.10768023
212	0x3eb1d5a6	0.34733313
213	0xbf95a491	-1.1690847
214	0x3f312233	0.6919281
215	0x3eb9610f	0.36206862
216	0x3e4f9b11	0.20273997
217	0xbf085ff9	-0.5327144
218	0xbf7ca714	-0.9869244
219	0xbf1543d6	-0.58306634
220	0xbf9785d0	-1.1837711
221	0xbf7c6be9	-0.9860216
222	0xbf28cf7e	-0.6594161
223	0x3f8d4e8c	1.1039596
224	0x3fc24d15	1.5179774
225	0x3f625bfc	0.88421607
226	0x3f4dd7c3	0.8040735
227	0x3e0f5112	0.1399577
228	0xbf1c6628	-0.6109338
229	0xbf9b3814	-1.2126489
230	0xbfb13125	-1.3843123
231	0x3f2a6e9a	0.66575015
232	0x3f661401	0.89874274
233	0x3eedabba	0.4642008
234	0x3e14bbad	0.14524718
235	0x3eb89791	0.36053136
236	0xbf0eebc4	-0.558285
237	0x3f5365c1	0.8257714
238	0xbf86a87b	-1.0520166
239	0xbf28f67e	-0.6600112
240	0xbedb82f3	-0.42873344
241	0xbe5946f0	-0.21218467
242	0xbfdad76a	-1.7096989
243	0xbf090772	-0.53526986
244	0xbf2c67da	-0.67345965
245	0xbe80c15a	-0.25147516
246	0x3b9b02ce	0.004730559
247	0x3e274b14	0.16337234
248	0xbf4ae647	-0.79257625
249	0xbf5ed599	-0.87044674
250	0xbf8df388	-1.1089945
251	0xbde68754	-0.112562805
252	0x3e2d6274	0.16932088
253	0xbea27e0b	-0.31736788
254	0xbf157a79	-0.58390003
255	0xbf67b264	-0.9050658

fc.bias f4 [2]
0	0x3fb18edf	1.3871726
1	0xbfb1f9d5	-1.3904368
